____________________________________________________________________________________________________
Layer (type)                     Output Shape          Param #     Connected to
====================================================================================================
input_1 (InputLayer)             (None, 512, 1024, 3)  0
____________________________________________________________________________________________________
conv2d_1 (Conv2D)                (None, 256, 512, 13)  364         input_1[0][0]
____________________________________________________________________________________________________
max_pooling2d_1 (MaxPooling2D)   (None, 256, 512, 3)   0           input_1[0][0]
____________________________________________________________________________________________________
concatenate_1 (Concatenate)      (None, 256, 512, 16)  0           conv2d_1[0][0]
                                                                   max_pooling2d_1[0][0]
____________________________________________________________________________________________________
conv2d_2 (Conv2D)                (None, 128, 256, 16)  1024        concatenate_1[0][0]
____________________________________________________________________________________________________
batch_normalization_1 (BatchNorm (None, 128, 256, 16)  64          conv2d_2[0][0]
____________________________________________________________________________________________________
p_re_lu_1 (PReLU)                (None, 128, 256, 16)  16          batch_normalization_1[0][0]
____________________________________________________________________________________________________
conv2d_3 (Conv2D)                (None, 128, 256, 16)  2320        p_re_lu_1[0][0]
____________________________________________________________________________________________________
batch_normalization_2 (BatchNorm (None, 128, 256, 16)  64          conv2d_3[0][0]
____________________________________________________________________________________________________
p_re_lu_2 (PReLU)                (None, 128, 256, 16)  16          batch_normalization_2[0][0]
____________________________________________________________________________________________________
max_pooling2d_2 (MaxPooling2D)   (None, 128, 256, 16)  0           concatenate_1[0][0]
____________________________________________________________________________________________________
conv2d_4 (Conv2D)                (None, 128, 256, 64)  1024        p_re_lu_2[0][0]
____________________________________________________________________________________________________
permute_1 (Permute)              (None, 128, 16, 256)  0           max_pooling2d_2[0][0]
____________________________________________________________________________________________________
batch_normalization_3 (BatchNorm (None, 128, 256, 64)  256         conv2d_4[0][0]
____________________________________________________________________________________________________
zero_padding2d_1 (ZeroPadding2D) (None, 128, 64, 256)  0           permute_1[0][0]
____________________________________________________________________________________________________
spatial_dropout2d_1 (SpatialDrop (None, 128, 256, 64)  0           batch_normalization_3[0][0]
____________________________________________________________________________________________________
permute_2 (Permute)              (None, 128, 256, 64)  0           zero_padding2d_1[0][0]
____________________________________________________________________________________________________
add_1 (Add)                      (None, 128, 256, 64)  0           spatial_dropout2d_1[0][0]
                                                                   permute_2[0][0]
____________________________________________________________________________________________________
p_re_lu_3 (PReLU)                (None, 128, 256, 64)  64          add_1[0][0]
____________________________________________________________________________________________________
conv2d_5 (Conv2D)                (None, 128, 256, 16)  1024        p_re_lu_3[0][0]
____________________________________________________________________________________________________
batch_normalization_4 (BatchNorm (None, 128, 256, 16)  64          conv2d_5[0][0]
____________________________________________________________________________________________________
p_re_lu_4 (PReLU)                (None, 128, 256, 16)  16          batch_normalization_4[0][0]
____________________________________________________________________________________________________
conv2d_6 (Conv2D)                (None, 128, 256, 16)  2320        p_re_lu_4[0][0]
____________________________________________________________________________________________________
batch_normalization_5 (BatchNorm (None, 128, 256, 16)  64          conv2d_6[0][0]
____________________________________________________________________________________________________
p_re_lu_5 (PReLU)                (None, 128, 256, 16)  16          batch_normalization_5[0][0]
____________________________________________________________________________________________________
conv2d_7 (Conv2D)                (None, 128, 256, 64)  1024        p_re_lu_5[0][0]
____________________________________________________________________________________________________
batch_normalization_6 (BatchNorm (None, 128, 256, 64)  256         conv2d_7[0][0]
____________________________________________________________________________________________________
spatial_dropout2d_2 (SpatialDrop (None, 128, 256, 64)  0           batch_normalization_6[0][0]
____________________________________________________________________________________________________
add_2 (Add)                      (None, 128, 256, 64)  0           spatial_dropout2d_2[0][0]
                                                                   p_re_lu_3[0][0]
____________________________________________________________________________________________________
p_re_lu_6 (PReLU)                (None, 128, 256, 64)  64          add_2[0][0]
____________________________________________________________________________________________________
conv2d_8 (Conv2D)                (None, 128, 256, 16)  1024        p_re_lu_6[0][0]
____________________________________________________________________________________________________
batch_normalization_7 (BatchNorm (None, 128, 256, 16)  64          conv2d_8[0][0]
____________________________________________________________________________________________________
p_re_lu_7 (PReLU)                (None, 128, 256, 16)  16          batch_normalization_7[0][0]
____________________________________________________________________________________________________
conv2d_9 (Conv2D)                (None, 128, 256, 16)  2320        p_re_lu_7[0][0]
____________________________________________________________________________________________________
batch_normalization_8 (BatchNorm (None, 128, 256, 16)  64          conv2d_9[0][0]
____________________________________________________________________________________________________
p_re_lu_8 (PReLU)                (None, 128, 256, 16)  16          batch_normalization_8[0][0]
____________________________________________________________________________________________________
conv2d_10 (Conv2D)               (None, 128, 256, 64)  1024        p_re_lu_8[0][0]
____________________________________________________________________________________________________
batch_normalization_9 (BatchNorm (None, 128, 256, 64)  256         conv2d_10[0][0]
____________________________________________________________________________________________________
spatial_dropout2d_3 (SpatialDrop (None, 128, 256, 64)  0           batch_normalization_9[0][0]
____________________________________________________________________________________________________
add_3 (Add)                      (None, 128, 256, 64)  0           spatial_dropout2d_3[0][0]
                                                                   p_re_lu_6[0][0]
____________________________________________________________________________________________________
p_re_lu_9 (PReLU)                (None, 128, 256, 64)  64          add_3[0][0]
____________________________________________________________________________________________________
conv2d_11 (Conv2D)               (None, 128, 256, 16)  1024        p_re_lu_9[0][0]
____________________________________________________________________________________________________
batch_normalization_10 (BatchNor (None, 128, 256, 16)  64          conv2d_11[0][0]
____________________________________________________________________________________________________
p_re_lu_10 (PReLU)               (None, 128, 256, 16)  16          batch_normalization_10[0][0]
____________________________________________________________________________________________________
conv2d_12 (Conv2D)               (None, 128, 256, 16)  2320        p_re_lu_10[0][0]
____________________________________________________________________________________________________
batch_normalization_11 (BatchNor (None, 128, 256, 16)  64          conv2d_12[0][0]
____________________________________________________________________________________________________
p_re_lu_11 (PReLU)               (None, 128, 256, 16)  16          batch_normalization_11[0][0]
____________________________________________________________________________________________________
conv2d_13 (Conv2D)               (None, 128, 256, 64)  1024        p_re_lu_11[0][0]
____________________________________________________________________________________________________
batch_normalization_12 (BatchNor (None, 128, 256, 64)  256         conv2d_13[0][0]
____________________________________________________________________________________________________
spatial_dropout2d_4 (SpatialDrop (None, 128, 256, 64)  0           batch_normalization_12[0][0]
____________________________________________________________________________________________________
add_4 (Add)                      (None, 128, 256, 64)  0           spatial_dropout2d_4[0][0]
                                                                   p_re_lu_9[0][0]
____________________________________________________________________________________________________
p_re_lu_12 (PReLU)               (None, 128, 256, 64)  64          add_4[0][0]
____________________________________________________________________________________________________
conv2d_14 (Conv2D)               (None, 128, 256, 16)  1024        p_re_lu_12[0][0]
____________________________________________________________________________________________________
batch_normalization_13 (BatchNor (None, 128, 256, 16)  64          conv2d_14[0][0]
____________________________________________________________________________________________________
p_re_lu_13 (PReLU)               (None, 128, 256, 16)  16          batch_normalization_13[0][0]
____________________________________________________________________________________________________
conv2d_15 (Conv2D)               (None, 128, 256, 16)  2320        p_re_lu_13[0][0]
____________________________________________________________________________________________________
batch_normalization_14 (BatchNor (None, 128, 256, 16)  64          conv2d_15[0][0]
____________________________________________________________________________________________________
p_re_lu_14 (PReLU)               (None, 128, 256, 16)  16          batch_normalization_14[0][0]
____________________________________________________________________________________________________
conv2d_16 (Conv2D)               (None, 128, 256, 64)  1024        p_re_lu_14[0][0]
____________________________________________________________________________________________________
batch_normalization_15 (BatchNor (None, 128, 256, 64)  256         conv2d_16[0][0]
____________________________________________________________________________________________________
spatial_dropout2d_5 (SpatialDrop (None, 128, 256, 64)  0           batch_normalization_15[0][0]
____________________________________________________________________________________________________
add_5 (Add)                      (None, 128, 256, 64)  0           spatial_dropout2d_5[0][0]
                                                                   p_re_lu_12[0][0]
____________________________________________________________________________________________________
p_re_lu_15 (PReLU)               (None, 128, 256, 64)  64          add_5[0][0]
____________________________________________________________________________________________________
conv2d_17 (Conv2D)               (None, 64, 128, 32)   8192        p_re_lu_15[0][0]
____________________________________________________________________________________________________
batch_normalization_16 (BatchNor (None, 64, 128, 32)   128         conv2d_17[0][0]
____________________________________________________________________________________________________
p_re_lu_16 (PReLU)               (None, 64, 128, 32)   32          batch_normalization_16[0][0]
____________________________________________________________________________________________________
conv2d_18 (Conv2D)               (None, 64, 128, 32)   9248        p_re_lu_16[0][0]
____________________________________________________________________________________________________
batch_normalization_17 (BatchNor (None, 64, 128, 32)   128         conv2d_18[0][0]
____________________________________________________________________________________________________
p_re_lu_17 (PReLU)               (None, 64, 128, 32)   32          batch_normalization_17[0][0]
____________________________________________________________________________________________________
max_pooling2d_3 (MaxPooling2D)   (None, 64, 128, 64)   0           p_re_lu_15[0][0]
____________________________________________________________________________________________________
conv2d_19 (Conv2D)               (None, 64, 128, 128)  4096        p_re_lu_17[0][0]
____________________________________________________________________________________________________
permute_3 (Permute)              (None, 64, 64, 128)   0           max_pooling2d_3[0][0]
____________________________________________________________________________________________________
batch_normalization_18 (BatchNor (None, 64, 128, 128)  512         conv2d_19[0][0]
____________________________________________________________________________________________________
zero_padding2d_2 (ZeroPadding2D) (None, 64, 128, 128)  0           permute_3[0][0]
____________________________________________________________________________________________________
spatial_dropout2d_6 (SpatialDrop (None, 64, 128, 128)  0           batch_normalization_18[0][0]
____________________________________________________________________________________________________
permute_4 (Permute)              (None, 64, 128, 128)  0           zero_padding2d_2[0][0]
____________________________________________________________________________________________________
add_6 (Add)                      (None, 64, 128, 128)  0           spatial_dropout2d_6[0][0]
                                                                   permute_4[0][0]
____________________________________________________________________________________________________
p_re_lu_18 (PReLU)               (None, 64, 128, 128)  128         add_6[0][0]
____________________________________________________________________________________________________
conv2d_20 (Conv2D)               (None, 64, 128, 32)   4096        p_re_lu_18[0][0]
____________________________________________________________________________________________________
batch_normalization_19 (BatchNor (None, 64, 128, 32)   128         conv2d_20[0][0]
____________________________________________________________________________________________________
p_re_lu_19 (PReLU)               (None, 64, 128, 32)   32          batch_normalization_19[0][0]
____________________________________________________________________________________________________
conv2d_21 (Conv2D)               (None, 64, 128, 32)   9248        p_re_lu_19[0][0]
____________________________________________________________________________________________________
batch_normalization_20 (BatchNor (None, 64, 128, 32)   128         conv2d_21[0][0]
____________________________________________________________________________________________________
p_re_lu_20 (PReLU)               (None, 64, 128, 32)   32          batch_normalization_20[0][0]
____________________________________________________________________________________________________
conv2d_22 (Conv2D)               (None, 64, 128, 128)  4096        p_re_lu_20[0][0]
____________________________________________________________________________________________________
batch_normalization_21 (BatchNor (None, 64, 128, 128)  512         conv2d_22[0][0]
____________________________________________________________________________________________________
spatial_dropout2d_7 (SpatialDrop (None, 64, 128, 128)  0           batch_normalization_21[0][0]
____________________________________________________________________________________________________
add_7 (Add)                      (None, 64, 128, 128)  0           spatial_dropout2d_7[0][0]
                                                                   p_re_lu_18[0][0]
____________________________________________________________________________________________________
p_re_lu_21 (PReLU)               (None, 64, 128, 128)  128         add_7[0][0]
____________________________________________________________________________________________________
conv2d_23 (Conv2D)               (None, 64, 128, 32)   4096        p_re_lu_21[0][0]
____________________________________________________________________________________________________
batch_normalization_22 (BatchNor (None, 64, 128, 32)   128         conv2d_23[0][0]
____________________________________________________________________________________________________
p_re_lu_22 (PReLU)               (None, 64, 128, 32)   32          batch_normalization_22[0][0]
____________________________________________________________________________________________________
conv2d_24 (Conv2D)               (None, 64, 128, 32)   9248        p_re_lu_22[0][0]
____________________________________________________________________________________________________
batch_normalization_23 (BatchNor (None, 64, 128, 32)   128         conv2d_24[0][0]
____________________________________________________________________________________________________
p_re_lu_23 (PReLU)               (None, 64, 128, 32)   32          batch_normalization_23[0][0]
____________________________________________________________________________________________________
conv2d_25 (Conv2D)               (None, 64, 128, 128)  4096        p_re_lu_23[0][0]
____________________________________________________________________________________________________
batch_normalization_24 (BatchNor (None, 64, 128, 128)  512         conv2d_25[0][0]
____________________________________________________________________________________________________
spatial_dropout2d_8 (SpatialDrop (None, 64, 128, 128)  0           batch_normalization_24[0][0]
____________________________________________________________________________________________________
add_8 (Add)                      (None, 64, 128, 128)  0           spatial_dropout2d_8[0][0]
                                                                   p_re_lu_21[0][0]
____________________________________________________________________________________________________
p_re_lu_24 (PReLU)               (None, 64, 128, 128)  128         add_8[0][0]
____________________________________________________________________________________________________
conv2d_26 (Conv2D)               (None, 64, 128, 32)   4096        p_re_lu_24[0][0]
____________________________________________________________________________________________________
batch_normalization_25 (BatchNor (None, 64, 128, 32)   128         conv2d_26[0][0]
____________________________________________________________________________________________________
p_re_lu_25 (PReLU)               (None, 64, 128, 32)   32          batch_normalization_25[0][0]
____________________________________________________________________________________________________
conv2d_27 (Conv2D)               (None, 64, 128, 32)   5120        p_re_lu_25[0][0]
____________________________________________________________________________________________________
conv2d_28 (Conv2D)               (None, 64, 128, 32)   5152        conv2d_27[0][0]
____________________________________________________________________________________________________
batch_normalization_26 (BatchNor (None, 64, 128, 32)   128         conv2d_28[0][0]
____________________________________________________________________________________________________
p_re_lu_26 (PReLU)               (None, 64, 128, 32)   32          batch_normalization_26[0][0]
____________________________________________________________________________________________________
conv2d_29 (Conv2D)               (None, 64, 128, 128)  4096        p_re_lu_26[0][0]
____________________________________________________________________________________________________
batch_normalization_27 (BatchNor (None, 64, 128, 128)  512         conv2d_29[0][0]
____________________________________________________________________________________________________
spatial_dropout2d_9 (SpatialDrop (None, 64, 128, 128)  0           batch_normalization_27[0][0]
____________________________________________________________________________________________________
add_9 (Add)                      (None, 64, 128, 128)  0           spatial_dropout2d_9[0][0]
                                                                   p_re_lu_24[0][0]
____________________________________________________________________________________________________
p_re_lu_27 (PReLU)               (None, 64, 128, 128)  128         add_9[0][0]
____________________________________________________________________________________________________
conv2d_30 (Conv2D)               (None, 64, 128, 32)   4096        p_re_lu_27[0][0]
____________________________________________________________________________________________________
batch_normalization_28 (BatchNor (None, 64, 128, 32)   128         conv2d_30[0][0]
____________________________________________________________________________________________________
p_re_lu_28 (PReLU)               (None, 64, 128, 32)   32          batch_normalization_28[0][0]
____________________________________________________________________________________________________
conv2d_31 (Conv2D)               (None, 64, 128, 32)   9248        p_re_lu_28[0][0]
____________________________________________________________________________________________________
batch_normalization_29 (BatchNor (None, 64, 128, 32)   128         conv2d_31[0][0]
____________________________________________________________________________________________________
p_re_lu_29 (PReLU)               (None, 64, 128, 32)   32          batch_normalization_29[0][0]
____________________________________________________________________________________________________
conv2d_32 (Conv2D)               (None, 64, 128, 128)  4096        p_re_lu_29[0][0]
____________________________________________________________________________________________________
batch_normalization_30 (BatchNor (None, 64, 128, 128)  512         conv2d_32[0][0]
____________________________________________________________________________________________________
spatial_dropout2d_10 (SpatialDro (None, 64, 128, 128)  0           batch_normalization_30[0][0]
____________________________________________________________________________________________________
add_10 (Add)                     (None, 64, 128, 128)  0           spatial_dropout2d_10[0][0]
                                                                   p_re_lu_27[0][0]
____________________________________________________________________________________________________
p_re_lu_30 (PReLU)               (None, 64, 128, 128)  128         add_10[0][0]
____________________________________________________________________________________________________
conv2d_33 (Conv2D)               (None, 64, 128, 32)   4096        p_re_lu_30[0][0]
____________________________________________________________________________________________________
batch_normalization_31 (BatchNor (None, 64, 128, 32)   128         conv2d_33[0][0]
____________________________________________________________________________________________________
p_re_lu_31 (PReLU)               (None, 64, 128, 32)   32          batch_normalization_31[0][0]
____________________________________________________________________________________________________
conv2d_34 (Conv2D)               (None, 64, 128, 32)   9248        p_re_lu_31[0][0]
____________________________________________________________________________________________________
batch_normalization_32 (BatchNor (None, 64, 128, 32)   128         conv2d_34[0][0]
____________________________________________________________________________________________________
p_re_lu_32 (PReLU)               (None, 64, 128, 32)   32          batch_normalization_32[0][0]
____________________________________________________________________________________________________
conv2d_35 (Conv2D)               (None, 64, 128, 128)  4096        p_re_lu_32[0][0]
____________________________________________________________________________________________________
batch_normalization_33 (BatchNor (None, 64, 128, 128)  512         conv2d_35[0][0]
____________________________________________________________________________________________________
spatial_dropout2d_11 (SpatialDro (None, 64, 128, 128)  0           batch_normalization_33[0][0]
____________________________________________________________________________________________________
add_11 (Add)                     (None, 64, 128, 128)  0           spatial_dropout2d_11[0][0]
                                                                   p_re_lu_30[0][0]
____________________________________________________________________________________________________
p_re_lu_33 (PReLU)               (None, 64, 128, 128)  128         add_11[0][0]
____________________________________________________________________________________________________
conv2d_36 (Conv2D)               (None, 64, 128, 32)   4096        p_re_lu_33[0][0]
____________________________________________________________________________________________________
batch_normalization_34 (BatchNor (None, 64, 128, 32)   128         conv2d_36[0][0]
____________________________________________________________________________________________________
p_re_lu_34 (PReLU)               (None, 64, 128, 32)   32          batch_normalization_34[0][0]
____________________________________________________________________________________________________
conv2d_37 (Conv2D)               (None, 64, 128, 32)   9248        p_re_lu_34[0][0]
____________________________________________________________________________________________________
batch_normalization_35 (BatchNor (None, 64, 128, 32)   128         conv2d_37[0][0]
____________________________________________________________________________________________________
p_re_lu_35 (PReLU)               (None, 64, 128, 32)   32          batch_normalization_35[0][0]
____________________________________________________________________________________________________
conv2d_38 (Conv2D)               (None, 64, 128, 128)  4096        p_re_lu_35[0][0]
____________________________________________________________________________________________________
batch_normalization_36 (BatchNor (None, 64, 128, 128)  512         conv2d_38[0][0]
____________________________________________________________________________________________________
spatial_dropout2d_12 (SpatialDro (None, 64, 128, 128)  0           batch_normalization_36[0][0]
____________________________________________________________________________________________________
add_12 (Add)                     (None, 64, 128, 128)  0           spatial_dropout2d_12[0][0]
                                                                   p_re_lu_33[0][0]
____________________________________________________________________________________________________
p_re_lu_36 (PReLU)               (None, 64, 128, 128)  128         add_12[0][0]
____________________________________________________________________________________________________
conv2d_39 (Conv2D)               (None, 64, 128, 32)   4096        p_re_lu_36[0][0]
____________________________________________________________________________________________________
batch_normalization_37 (BatchNor (None, 64, 128, 32)   128         conv2d_39[0][0]
____________________________________________________________________________________________________
p_re_lu_37 (PReLU)               (None, 64, 128, 32)   32          batch_normalization_37[0][0]
____________________________________________________________________________________________________
conv2d_40 (Conv2D)               (None, 64, 128, 32)   5120        p_re_lu_37[0][0]
____________________________________________________________________________________________________
conv2d_41 (Conv2D)               (None, 64, 128, 32)   5152        conv2d_40[0][0]
____________________________________________________________________________________________________
batch_normalization_38 (BatchNor (None, 64, 128, 32)   128         conv2d_41[0][0]
____________________________________________________________________________________________________
p_re_lu_38 (PReLU)               (None, 64, 128, 32)   32          batch_normalization_38[0][0]
____________________________________________________________________________________________________
conv2d_42 (Conv2D)               (None, 64, 128, 128)  4096        p_re_lu_38[0][0]
____________________________________________________________________________________________________
batch_normalization_39 (BatchNor (None, 64, 128, 128)  512         conv2d_42[0][0]
____________________________________________________________________________________________________
spatial_dropout2d_13 (SpatialDro (None, 64, 128, 128)  0           batch_normalization_39[0][0]
____________________________________________________________________________________________________
add_13 (Add)                     (None, 64, 128, 128)  0           spatial_dropout2d_13[0][0]
                                                                   p_re_lu_36[0][0]
____________________________________________________________________________________________________
p_re_lu_39 (PReLU)               (None, 64, 128, 128)  128         add_13[0][0]
____________________________________________________________________________________________________
conv2d_43 (Conv2D)               (None, 64, 128, 32)   4096        p_re_lu_39[0][0]
____________________________________________________________________________________________________
batch_normalization_40 (BatchNor (None, 64, 128, 32)   128         conv2d_43[0][0]
____________________________________________________________________________________________________
p_re_lu_40 (PReLU)               (None, 64, 128, 32)   32          batch_normalization_40[0][0]
____________________________________________________________________________________________________
conv2d_44 (Conv2D)               (None, 64, 128, 32)   9248        p_re_lu_40[0][0]
____________________________________________________________________________________________________
batch_normalization_41 (BatchNor (None, 64, 128, 32)   128         conv2d_44[0][0]
____________________________________________________________________________________________________
p_re_lu_41 (PReLU)               (None, 64, 128, 32)   32          batch_normalization_41[0][0]
____________________________________________________________________________________________________
conv2d_45 (Conv2D)               (None, 64, 128, 128)  4096        p_re_lu_41[0][0]
____________________________________________________________________________________________________
batch_normalization_42 (BatchNor (None, 64, 128, 128)  512         conv2d_45[0][0]
____________________________________________________________________________________________________
spatial_dropout2d_14 (SpatialDro (None, 64, 128, 128)  0           batch_normalization_42[0][0]
____________________________________________________________________________________________________
add_14 (Add)                     (None, 64, 128, 128)  0           spatial_dropout2d_14[0][0]
                                                                   p_re_lu_39[0][0]
____________________________________________________________________________________________________
p_re_lu_42 (PReLU)               (None, 64, 128, 128)  128         add_14[0][0]
____________________________________________________________________________________________________
conv2d_46 (Conv2D)               (None, 64, 128, 32)   4096        p_re_lu_42[0][0]
____________________________________________________________________________________________________
batch_normalization_43 (BatchNor (None, 64, 128, 32)   128         conv2d_46[0][0]
____________________________________________________________________________________________________
p_re_lu_43 (PReLU)               (None, 64, 128, 32)   32          batch_normalization_43[0][0]
____________________________________________________________________________________________________
conv2d_47 (Conv2D)               (None, 64, 128, 32)   9248        p_re_lu_43[0][0]
____________________________________________________________________________________________________
batch_normalization_44 (BatchNor (None, 64, 128, 32)   128         conv2d_47[0][0]
____________________________________________________________________________________________________
p_re_lu_44 (PReLU)               (None, 64, 128, 32)   32          batch_normalization_44[0][0]
____________________________________________________________________________________________________
conv2d_48 (Conv2D)               (None, 64, 128, 128)  4096        p_re_lu_44[0][0]
____________________________________________________________________________________________________
batch_normalization_45 (BatchNor (None, 64, 128, 128)  512         conv2d_48[0][0]
____________________________________________________________________________________________________
spatial_dropout2d_15 (SpatialDro (None, 64, 128, 128)  0           batch_normalization_45[0][0]
____________________________________________________________________________________________________
add_15 (Add)                     (None, 64, 128, 128)  0           spatial_dropout2d_15[0][0]
                                                                   p_re_lu_42[0][0]
____________________________________________________________________________________________________
p_re_lu_45 (PReLU)               (None, 64, 128, 128)  128         add_15[0][0]
____________________________________________________________________________________________________
conv2d_49 (Conv2D)               (None, 64, 128, 32)   4096        p_re_lu_45[0][0]
____________________________________________________________________________________________________
batch_normalization_46 (BatchNor (None, 64, 128, 32)   128         conv2d_49[0][0]
____________________________________________________________________________________________________
p_re_lu_46 (PReLU)               (None, 64, 128, 32)   32          batch_normalization_46[0][0]
____________________________________________________________________________________________________
conv2d_50 (Conv2D)               (None, 64, 128, 32)   9248        p_re_lu_46[0][0]
____________________________________________________________________________________________________
batch_normalization_47 (BatchNor (None, 64, 128, 32)   128         conv2d_50[0][0]
____________________________________________________________________________________________________
p_re_lu_47 (PReLU)               (None, 64, 128, 32)   32          batch_normalization_47[0][0]
____________________________________________________________________________________________________
conv2d_51 (Conv2D)               (None, 64, 128, 128)  4096        p_re_lu_47[0][0]
____________________________________________________________________________________________________
batch_normalization_48 (BatchNor (None, 64, 128, 128)  512         conv2d_51[0][0]
____________________________________________________________________________________________________
spatial_dropout2d_16 (SpatialDro (None, 64, 128, 128)  0           batch_normalization_48[0][0]
____________________________________________________________________________________________________
add_16 (Add)                     (None, 64, 128, 128)  0           spatial_dropout2d_16[0][0]
                                                                   p_re_lu_45[0][0]
____________________________________________________________________________________________________
p_re_lu_48 (PReLU)               (None, 64, 128, 128)  128         add_16[0][0]
____________________________________________________________________________________________________
conv2d_52 (Conv2D)               (None, 64, 128, 32)   4096        p_re_lu_48[0][0]
____________________________________________________________________________________________________
batch_normalization_49 (BatchNor (None, 64, 128, 32)   128         conv2d_52[0][0]
____________________________________________________________________________________________________
p_re_lu_49 (PReLU)               (None, 64, 128, 32)   32          batch_normalization_49[0][0]
____________________________________________________________________________________________________
conv2d_53 (Conv2D)               (None, 64, 128, 32)   5120        p_re_lu_49[0][0]
____________________________________________________________________________________________________
conv2d_54 (Conv2D)               (None, 64, 128, 32)   5152        conv2d_53[0][0]
____________________________________________________________________________________________________
batch_normalization_50 (BatchNor (None, 64, 128, 32)   128         conv2d_54[0][0]
____________________________________________________________________________________________________
p_re_lu_50 (PReLU)               (None, 64, 128, 32)   32          batch_normalization_50[0][0]
____________________________________________________________________________________________________
conv2d_55 (Conv2D)               (None, 64, 128, 128)  4096        p_re_lu_50[0][0]
____________________________________________________________________________________________________
batch_normalization_51 (BatchNor (None, 64, 128, 128)  512         conv2d_55[0][0]
____________________________________________________________________________________________________
spatial_dropout2d_17 (SpatialDro (None, 64, 128, 128)  0           batch_normalization_51[0][0]
____________________________________________________________________________________________________
add_17 (Add)                     (None, 64, 128, 128)  0           spatial_dropout2d_17[0][0]
                                                                   p_re_lu_48[0][0]
____________________________________________________________________________________________________
p_re_lu_51 (PReLU)               (None, 64, 128, 128)  128         add_17[0][0]
____________________________________________________________________________________________________
conv2d_56 (Conv2D)               (None, 64, 128, 32)   4096        p_re_lu_51[0][0]
____________________________________________________________________________________________________
batch_normalization_52 (BatchNor (None, 64, 128, 32)   128         conv2d_56[0][0]
____________________________________________________________________________________________________
p_re_lu_52 (PReLU)               (None, 64, 128, 32)   32          batch_normalization_52[0][0]
____________________________________________________________________________________________________
conv2d_57 (Conv2D)               (None, 64, 128, 32)   9248        p_re_lu_52[0][0]
____________________________________________________________________________________________________
batch_normalization_53 (BatchNor (None, 64, 128, 32)   128         conv2d_57[0][0]
____________________________________________________________________________________________________
p_re_lu_53 (PReLU)               (None, 64, 128, 32)   32          batch_normalization_53[0][0]
____________________________________________________________________________________________________
conv2d_58 (Conv2D)               (None, 64, 128, 128)  4096        p_re_lu_53[0][0]
____________________________________________________________________________________________________
batch_normalization_54 (BatchNor (None, 64, 128, 128)  512         conv2d_58[0][0]
____________________________________________________________________________________________________
spatial_dropout2d_18 (SpatialDro (None, 64, 128, 128)  0           batch_normalization_54[0][0]
____________________________________________________________________________________________________
add_18 (Add)                     (None, 64, 128, 128)  0           spatial_dropout2d_18[0][0]
                                                                   p_re_lu_51[0][0]
____________________________________________________________________________________________________
p_re_lu_54 (PReLU)               (None, 64, 128, 128)  128         add_18[0][0]
____________________________________________________________________________________________________
conv2d_59 (Conv2D)               (None, 64, 128, 32)   4096        p_re_lu_54[0][0]
____________________________________________________________________________________________________
batch_normalization_55 (BatchNor (None, 64, 128, 32)   128         conv2d_59[0][0]
____________________________________________________________________________________________________
p_re_lu_55 (PReLU)               (None, 64, 128, 32)   32          batch_normalization_55[0][0]
____________________________________________________________________________________________________
conv2d_60 (Conv2D)               (None, 64, 128, 32)   9248        p_re_lu_55[0][0]
____________________________________________________________________________________________________
batch_normalization_56 (BatchNor (None, 64, 128, 32)   128         conv2d_60[0][0]
____________________________________________________________________________________________________
p_re_lu_56 (PReLU)               (None, 64, 128, 32)   32          batch_normalization_56[0][0]
____________________________________________________________________________________________________
conv2d_61 (Conv2D)               (None, 64, 128, 128)  4096        p_re_lu_56[0][0]
____________________________________________________________________________________________________
batch_normalization_57 (BatchNor (None, 64, 128, 128)  512         conv2d_61[0][0]
____________________________________________________________________________________________________
spatial_dropout2d_19 (SpatialDro (None, 64, 128, 128)  0           batch_normalization_57[0][0]
____________________________________________________________________________________________________
add_19 (Add)                     (None, 64, 128, 128)  0           spatial_dropout2d_19[0][0]
                                                                   p_re_lu_54[0][0]
____________________________________________________________________________________________________
p_re_lu_57 (PReLU)               (None, 64, 128, 128)  128         add_19[0][0]
____________________________________________________________________________________________________
conv2d_62 (Conv2D)               (None, 64, 128, 32)   4096        p_re_lu_57[0][0]
____________________________________________________________________________________________________
batch_normalization_58 (BatchNor (None, 64, 128, 32)   128         conv2d_62[0][0]
____________________________________________________________________________________________________
p_re_lu_58 (PReLU)               (None, 64, 128, 32)   32          batch_normalization_58[0][0]
____________________________________________________________________________________________________
conv2d_63 (Conv2D)               (None, 64, 128, 32)   9248        p_re_lu_58[0][0]
____________________________________________________________________________________________________
batch_normalization_59 (BatchNor (None, 64, 128, 32)   128         conv2d_63[0][0]
____________________________________________________________________________________________________
p_re_lu_59 (PReLU)               (None, 64, 128, 32)   32          batch_normalization_59[0][0]
____________________________________________________________________________________________________
conv2d_64 (Conv2D)               (None, 64, 128, 128)  4096        p_re_lu_59[0][0]
____________________________________________________________________________________________________
batch_normalization_60 (BatchNor (None, 64, 128, 128)  512         conv2d_64[0][0]
____________________________________________________________________________________________________
spatial_dropout2d_20 (SpatialDro (None, 64, 128, 128)  0           batch_normalization_60[0][0]
____________________________________________________________________________________________________
add_20 (Add)                     (None, 64, 128, 128)  0           spatial_dropout2d_20[0][0]
                                                                   p_re_lu_57[0][0]
____________________________________________________________________________________________________
p_re_lu_60 (PReLU)               (None, 64, 128, 128)  128         add_20[0][0]
____________________________________________________________________________________________________
conv2d_65 (Conv2D)               (None, 64, 128, 32)   4096        p_re_lu_60[0][0]
____________________________________________________________________________________________________
batch_normalization_61 (BatchNor (None, 64, 128, 32)   128         conv2d_65[0][0]
____________________________________________________________________________________________________
p_re_lu_61 (PReLU)               (None, 64, 128, 32)   32          batch_normalization_61[0][0]
____________________________________________________________________________________________________
conv2d_66 (Conv2D)               (None, 64, 128, 32)   5120        p_re_lu_61[0][0]
____________________________________________________________________________________________________
conv2d_67 (Conv2D)               (None, 64, 128, 32)   5152        conv2d_66[0][0]
____________________________________________________________________________________________________
batch_normalization_62 (BatchNor (None, 64, 128, 32)   128         conv2d_67[0][0]
____________________________________________________________________________________________________
p_re_lu_62 (PReLU)               (None, 64, 128, 32)   32          batch_normalization_62[0][0]
____________________________________________________________________________________________________
conv2d_68 (Conv2D)               (None, 64, 128, 128)  4096        p_re_lu_62[0][0]
____________________________________________________________________________________________________
batch_normalization_63 (BatchNor (None, 64, 128, 128)  512         conv2d_68[0][0]
____________________________________________________________________________________________________
spatial_dropout2d_21 (SpatialDro (None, 64, 128, 128)  0           batch_normalization_63[0][0]
____________________________________________________________________________________________________
add_21 (Add)                     (None, 64, 128, 128)  0           spatial_dropout2d_21[0][0]
                                                                   p_re_lu_60[0][0]
____________________________________________________________________________________________________
p_re_lu_63 (PReLU)               (None, 64, 128, 128)  128         add_21[0][0]
____________________________________________________________________________________________________
conv2d_69 (Conv2D)               (None, 64, 128, 32)   4096        p_re_lu_63[0][0]
____________________________________________________________________________________________________
batch_normalization_64 (BatchNor (None, 64, 128, 32)   128         conv2d_69[0][0]
____________________________________________________________________________________________________
p_re_lu_64 (PReLU)               (None, 64, 128, 32)   32          batch_normalization_64[0][0]
____________________________________________________________________________________________________
conv2d_70 (Conv2D)               (None, 64, 128, 32)   9248        p_re_lu_64[0][0]
____________________________________________________________________________________________________
batch_normalization_65 (BatchNor (None, 64, 128, 32)   128         conv2d_70[0][0]
____________________________________________________________________________________________________
p_re_lu_65 (PReLU)               (None, 64, 128, 32)   32          batch_normalization_65[0][0]
____________________________________________________________________________________________________
conv2d_71 (Conv2D)               (None, 64, 128, 128)  4096        p_re_lu_65[0][0]
____________________________________________________________________________________________________
batch_normalization_66 (BatchNor (None, 64, 128, 128)  512         conv2d_71[0][0]
____________________________________________________________________________________________________
spatial_dropout2d_22 (SpatialDro (None, 64, 128, 128)  0           batch_normalization_66[0][0]
____________________________________________________________________________________________________
add_22 (Add)                     (None, 64, 128, 128)  0           spatial_dropout2d_22[0][0]
                                                                   p_re_lu_63[0][0]
____________________________________________________________________________________________________
p_re_lu_66 (PReLU)               (None, 64, 128, 128)  128         add_22[0][0]
____________________________________________________________________________________________________
conv2d_72 (Conv2D)               (None, 64, 128, 16)   2048        p_re_lu_66[0][0]
____________________________________________________________________________________________________
batch_normalization_67 (BatchNor (None, 64, 128, 16)   64          conv2d_72[0][0]
____________________________________________________________________________________________________
activation_1 (Activation)        (None, 64, 128, 16)   0           batch_normalization_67[0][0]
____________________________________________________________________________________________________
conv2d_transpose_1 (Conv2DTransp (None, 128, 256, 16)  2320        activation_1[0][0]
____________________________________________________________________________________________________
batch_normalization_68 (BatchNor (None, 128, 256, 16)  64          conv2d_transpose_1[0][0]
____________________________________________________________________________________________________
activation_2 (Activation)        (None, 128, 256, 16)  0           batch_normalization_68[0][0]
____________________________________________________________________________________________________
conv2d_74 (Conv2D)               (None, 64, 128, 64)   8192        p_re_lu_66[0][0]
____________________________________________________________________________________________________
conv2d_73 (Conv2D)               (None, 128, 256, 64)  1024        activation_2[0][0]
____________________________________________________________________________________________________
batch_normalization_69 (BatchNor (None, 64, 128, 64)   256         conv2d_74[0][0]
____________________________________________________________________________________________________
batch_normalization_70 (BatchNor (None, 128, 256, 64)  256         conv2d_73[0][0]
____________________________________________________________________________________________________
up_sampling2d_1 (UpSampling2D)   (None, 128, 256, 64)  0           batch_normalization_69[0][0]
____________________________________________________________________________________________________
add_23 (Add)                     (None, 128, 256, 64)  0           batch_normalization_70[0][0]
                                                                   up_sampling2d_1[0][0]
____________________________________________________________________________________________________
activation_3 (Activation)        (None, 128, 256, 64)  0           add_23[0][0]
____________________________________________________________________________________________________
conv2d_75 (Conv2D)               (None, 128, 256, 16)  1024        activation_3[0][0]
____________________________________________________________________________________________________
batch_normalization_71 (BatchNor (None, 128, 256, 16)  64          conv2d_75[0][0]
____________________________________________________________________________________________________
activation_4 (Activation)        (None, 128, 256, 16)  0           batch_normalization_71[0][0]
____________________________________________________________________________________________________
conv2d_76 (Conv2D)               (None, 128, 256, 16)  2320        activation_4[0][0]
____________________________________________________________________________________________________
batch_normalization_72 (BatchNor (None, 128, 256, 16)  64          conv2d_76[0][0]
____________________________________________________________________________________________________
activation_5 (Activation)        (None, 128, 256, 16)  0           batch_normalization_72[0][0]
____________________________________________________________________________________________________
conv2d_77 (Conv2D)               (None, 128, 256, 64)  1024        activation_5[0][0]
____________________________________________________________________________________________________
batch_normalization_73 (BatchNor (None, 128, 256, 64)  256         conv2d_77[0][0]
____________________________________________________________________________________________________
add_24 (Add)                     (None, 128, 256, 64)  0           batch_normalization_73[0][0]
                                                                   activation_3[0][0]
____________________________________________________________________________________________________
activation_6 (Activation)        (None, 128, 256, 64)  0           add_24[0][0]
____________________________________________________________________________________________________
conv2d_78 (Conv2D)               (None, 128, 256, 16)  1024        activation_6[0][0]
____________________________________________________________________________________________________
batch_normalization_74 (BatchNor (None, 128, 256, 16)  64          conv2d_78[0][0]
____________________________________________________________________________________________________
activation_7 (Activation)        (None, 128, 256, 16)  0           batch_normalization_74[0][0]
____________________________________________________________________________________________________
conv2d_79 (Conv2D)               (None, 128, 256, 16)  2320        activation_7[0][0]
____________________________________________________________________________________________________
batch_normalization_75 (BatchNor (None, 128, 256, 16)  64          conv2d_79[0][0]
____________________________________________________________________________________________________
activation_8 (Activation)        (None, 128, 256, 16)  0           batch_normalization_75[0][0]
____________________________________________________________________________________________________
conv2d_80 (Conv2D)               (None, 128, 256, 64)  1024        activation_8[0][0]
____________________________________________________________________________________________________
batch_normalization_76 (BatchNor (None, 128, 256, 64)  256         conv2d_80[0][0]
____________________________________________________________________________________________________
add_25 (Add)                     (None, 128, 256, 64)  0           batch_normalization_76[0][0]
                                                                   activation_6[0][0]
____________________________________________________________________________________________________
activation_9 (Activation)        (None, 128, 256, 64)  0           add_25[0][0]
____________________________________________________________________________________________________
conv2d_81 (Conv2D)               (None, 128, 256, 4)   256         activation_9[0][0]
____________________________________________________________________________________________________
batch_normalization_77 (BatchNor (None, 128, 256, 4)   16          conv2d_81[0][0]
____________________________________________________________________________________________________
activation_10 (Activation)       (None, 128, 256, 4)   0           batch_normalization_77[0][0]
____________________________________________________________________________________________________
conv2d_transpose_2 (Conv2DTransp (None, 256, 512, 4)   148         activation_10[0][0]
____________________________________________________________________________________________________
batch_normalization_78 (BatchNor (None, 256, 512, 4)   16          conv2d_transpose_2[0][0]
____________________________________________________________________________________________________
activation_11 (Activation)       (None, 256, 512, 4)   0           batch_normalization_78[0][0]
____________________________________________________________________________________________________
conv2d_83 (Conv2D)               (None, 128, 256, 16)  1024        activation_9[0][0]
____________________________________________________________________________________________________
conv2d_82 (Conv2D)               (None, 256, 512, 16)  64          activation_11[0][0]
____________________________________________________________________________________________________
batch_normalization_79 (BatchNor (None, 128, 256, 16)  64          conv2d_83[0][0]
____________________________________________________________________________________________________
batch_normalization_80 (BatchNor (None, 256, 512, 16)  64          conv2d_82[0][0]
____________________________________________________________________________________________________
up_sampling2d_2 (UpSampling2D)   (None, 256, 512, 16)  0           batch_normalization_79[0][0]
____________________________________________________________________________________________________
add_26 (Add)                     (None, 256, 512, 16)  0           batch_normalization_80[0][0]
                                                                   up_sampling2d_2[0][0]
____________________________________________________________________________________________________
activation_12 (Activation)       (None, 256, 512, 16)  0           add_26[0][0]
____________________________________________________________________________________________________
conv2d_84 (Conv2D)               (None, 256, 512, 4)   64          activation_12[0][0]
____________________________________________________________________________________________________
batch_normalization_81 (BatchNor (None, 256, 512, 4)   16          conv2d_84[0][0]
____________________________________________________________________________________________________
activation_13 (Activation)       (None, 256, 512, 4)   0           batch_normalization_81[0][0]
____________________________________________________________________________________________________
conv2d_85 (Conv2D)               (None, 256, 512, 4)   148         activation_13[0][0]
____________________________________________________________________________________________________
batch_normalization_82 (BatchNor (None, 256, 512, 4)   16          conv2d_85[0][0]
____________________________________________________________________________________________________
activation_14 (Activation)       (None, 256, 512, 4)   0           batch_normalization_82[0][0]
____________________________________________________________________________________________________
conv2d_86 (Conv2D)               (None, 256, 512, 16)  64          activation_14[0][0]
____________________________________________________________________________________________________
batch_normalization_83 (BatchNor (None, 256, 512, 16)  64          conv2d_86[0][0]
____________________________________________________________________________________________________
add_27 (Add)                     (None, 256, 512, 16)  0           batch_normalization_83[0][0]
                                                                   activation_12[0][0]
____________________________________________________________________________________________________
activation_15 (Activation)       (None, 256, 512, 16)  0           add_27[0][0]
____________________________________________________________________________________________________
conv2d_transpose_3 (Conv2DTransp (None, 512, 1024, 5)  325         activation_15[0][0]
____________________________________________________________________________________________________
reshape_1 (Reshape)              (None, 524288, 5)     0           conv2d_transpose_3[0][0]
____________________________________________________________________________________________________
activation_16 (Activation)       (None, 524288, 5)     0           reshape_1[0][0]
====================================================================================================
Total params: 371,673
Trainable params: 363,353
Non-trainable params: 8,320
____________________________________________________________________________________________________
